…
er_tz":-540,"elapsed":10533,"user":{"displayName":"SEON MI KIM","photoUrl":"https://lh3.googleusercontent.com/a-/AOh14GitwPSDPPyi_4aqh7Tz9mW1IrKf3wKSXo-_NiGU=s64","userId":"03562068581376268377"}},"outputId":"e544e025-dc3c-4ac3-f2d5-b87008dc7828"},"source":["summary(model,(50, 1, 28, 28))"],"execution_count":8,"outputs":[{"output_type":"stream","text":["----------------------------------------------------------------\n","        Layer (type)               Output Shape         Param #\n","================================================================\n","            Linear-1                  [-1, 512]         401,920\n","       BatchNorm1d-2                  [-1, 512]           1,024\n","            Linear-3                  [-1, 256]         131,328\n","       BatchNorm1d-4                  [-1, 256]             512\n","            Linear-5                  [-1, 128]          32,896\n","       BatchNorm1d-6                  [-1, 128]             256\n","            Linear-7                   [-1, 64]           8,256\n","       BatchNorm1d-8                   [-1, 64]             128\n","            Linear-9                   [-1, 32]           2,080\n","      BatchNorm1d-10                   [-1, 32]              64\n","           Linear-11                   [-1, 10]             330\n","================================================================\n","Total params: 578,794\n","Trainable params: 578,794\n","Non-trainable params: 0\n","----------------------------------------------------------------\n","Input size (MB): 0.15\n","Forward/backward pass size (MB): 0.02\n","Params size (MB): 2.21\n","Estimated Total Size (MB): 2.37\n","------------------------------------------
…
