…
ame":"SEON MI KIM","photoUrl":"https://lh3.googleusercontent.com/a-/AOh14GitwPSDPPyi_4aqh7Tz9mW1IrKf3wKSXo-_NiGU=s64","userId":"03562068581376268377"}},"outputId":"a9bfd1a9-96e7-4da4-8253-e1b97492d44d"},"source":["summary(model,input_size=(1, 28, 28))  # input_size=(channels, H, W) -> DNN이랑 달라?"],"execution_count":31,"outputs":[{"output_type":"stream","text":["----------------------------------------------------------------\n","        Layer (type)               Output Shape         Param #\n","================================================================\n","            Conv2d-1           [-1, 32, 28, 28]             320\n","              ReLU-2           [-1, 32, 28, 28]               0\n","         MaxPool2d-3           [-1, 32, 14, 14]               0\n","            Conv2d-4           [-1, 64, 14, 14]          18,496\n","              ReLU-5           [-1, 64, 14, 14]               0\n","         MaxPool2d-6             [-1, 64, 7, 7]               0\n","            Conv2d-7            [-1, 128, 7, 7]          73,856\n","              ReLU-8            [-1, 128, 7, 7]               0\n","         MaxPool2d-9            [-1, 128, 4, 4]               0\n","           Linear-10                  [-1, 625]       1,280,625\n","           Linear-11                  [-1, 625]       1,280,625\n","             ReLU-12                  [-1, 625]               0\n","          Dropout-13                  [-1, 625]               0\n","           Linear-14                   [-1, 10]           6,260\n","================================================================\n","Total params: 2,660,182\n","Trainable params: 2,660,182\n","Non-trainable params: 0\n","----------------------------------------------------------------\n","Input size (MB): 0.00\n","Forward/backward pass size (MB): 0.78\n","Params size (MB): 10.15\n","Estimated Total Size (MB): 10.93\n","------------------------------------
…
