…
ser_tz":-540,"elapsed":808,"user":{"displayName":"SEON MI KIM","photoUrl":"https://lh3.googleusercontent.com/a-/AOh14GitwPSDPPyi_4aqh7Tz9mW1IrKf3wKSXo-_NiGU=s64","userId":"03562068581376268377"}},"outputId":"84ab7d2d-6ec9-4801-94f9-e9105f184410"},"source":["summary(model,(50, 1, 28, 28))"],"execution_count":28,"outputs":[{"output_type":"stream","text":["----------------------------------------------------------------\n","        Layer (type)               Output Shape         Param #\n","================================================================\n","            Linear-1                  [-1, 512]         401,920\n","       BatchNorm1d-2                  [-1, 512]           1,024\n","              ReLU-3                  [-1, 512]               0\n","           Dropout-4                  [-1, 512]               0\n","            Linear-5                  [-1, 256]         131,328\n","       BatchNorm1d-6                  [-1, 256]             512\n","              ReLU-7                  [-1, 256]               0\n","           Dropout-8                  [-1, 256]               0\n","            Linear-9                  [-1, 128]          32,896\n","      BatchNorm1d-10                  [-1, 128]             256\n","             ReLU-11                  [-1, 128]               0\n","          Dropout-12                  [-1, 128]               0\n","           Linear-13                   [-1, 64]           8,256\n","      BatchNorm1d-14                   [-1, 64]             128\n","             ReLU-15                   [-1, 64]               0\n","          Dropout-16                   [-1, 64]               0\n","           Linear-17                   [-1, 32]           2,080\n","      BatchNorm1d-18                   [-1, 32]              64\n","             ReLU-19                   [-1, 32]               0\n","          Dropout-20                   [-1, 32]               0\n","================================================================\n","Total params: 578,464\n","Trainable params: 578,464\n","Non-trainable params: 0\n","----------------------------------------------------------------\n","Input size (MB): 0.15\n","Forward/backward pass size (MB): 0.03\n","Params size (MB): 2.21\n","Estimated Total Size (MB): 2.39\n","------------------------------------------
…
