…
er_tz":-540,"elapsed":11177,"user":{"displayName":"SEON MI KIM","photoUrl":"https://lh3.googleusercontent.com/a-/AOh14GitwPSDPPyi_4aqh7Tz9mW1IrKf3wKSXo-_NiGU=s64","userId":"03562068581376268377"}},"outputId":"bede206a-6cfe-40f8-b82a-19fac6753f4b"},"source":["summary(model,(50, 1, 28, 28))"],"execution_count":9,"outputs":[{"output_type":"stream","text":["----------------------------------------------------------------\n","        Layer (type)               Output Shape         Param #\n","================================================================\n","            Linear-1                  [-1, 512]         401,920\n","            Linear-2                  [-1, 256]         131,328\n","            Linear-3                  [-1, 128]          32,896\n","            Linear-4                   [-1, 64]           8,256\n","            Linear-5                   [-1, 32]           2,080\n","            Linear-6                   [-1, 10]             330\n","================================================================\n","Total params: 576,810\n","Trainable params: 576,810\n","Non-trainable params: 0\n","----------------------------------------------------------------\n","Input size (MB): 0.15\n","Forward/backward pass size (MB): 0.01\n","Params size (MB): 2.20\n","Estimated Total Size (MB): 2.36\n","------------------------------------------
…
